Chapter6_Deep Reinforcement Learning/A2C/best_model.pth (torch_old, 4952 bytes, 11 tensors)

0.weight f4 [16, 4]
0	0xbec7e6f8	-0.39043403
1	0x3c1d4679	0.0095993215
2	0x3e7bfbb3	0.24607734
3	0x3ecb12c6	0.3966276
4	0x3d7fb996	0.062432848
5	0x3d1a8c27	0.037731316
6	0x3ee8ee0a	0.4549411
7	0x3f1814d0	0.5940676
8	0xbe00cb2a	-0.12577501
9	0xbe952eec	-0.2913736
10	0x3dfcfc81	0.12352849
11	0xbe9b790b	-0.30365786
12	0xbd157db1	-0.03649682
13	0x3f15f955	0.58583575
14	0xbf0e813b	-0.5566594
15	0xbeee64f6	-0.46561402
16	0xbe1c0497	-0.15236126
17	0xbf00190f	-0.50038236
18	0xbeb5dcc5	-0.35519996
19	0xbe473d36	-0.19456944
20	0x3e35f7ec	0.17770356
21	0xbd86b576	-0.0657758
22	0x3f640dbc	0.89083457
23	0x3e4ee7d6	0.20205626
24	0xbf0de8ea	-0.55433524
25	0xbe8eaf2a	-0.27868015
26	0xbf38ea73	-0.7223274
27	0x3dba9c8a	0.09111889
28	0xbe9f665e	-0.31132787
29	0x3e8cc786	0.27495974
30	0xbeb34982	-0.3501702
31	0x3dd6a0e8	0.10479909
32	0x3c8d3e37	0.01724158
33	0xbdfe1eaa	-0.124081925
34	0x3eaff830	0.3436904
35	0xbd7581f3	-0.059938382
36	0xbf0d2c1e	-0.5514544
37	0x3dbb56be	0.09147404
38	0x3ecf2c63	0.40463552
39	0xbd816125	-0.06317357
40	0xbdf7dd08	-0.12102705
41	0xbdec0d61	-0.11525989
42	0x3f4c64d2	0.7984134
43	0x3f2790d4	0.65455365
44	0xbe6caca8	-0.23112738
45	0x3b9af17a	0.0047284933
46	0xbe24a1e3	-0.1607738
47	0x3ba149db	0.0049221343
48	0x3ee7cc6c	0.4527315
49	0x3d1c8272	0.03821034
50	0xbf638ccc	-0.88886714
51	0xbf5d24fa	-0.86384547
52	0xbe38a8ce	-0.18033144
53	0xbe24bb78	-0.16087139
54	0x3f305b17	0.6888899
55	0x3f0c0041	0.5468789
56	0x3e7fb259	0.24970378
57	0x3eae0eff	0.33995816
58	0x3e5b79cd	0.21433182
59	0x3e72afa3	0.23699813
60	0xbead877d	-0.33892432
61	0x3e9348c1	0.28766444
62	0x3f699740	0.91246414
63	0x3f17f01c	0.5935075

0.bias f4 [16]
0	0xbf0a2c97	-0.5397429
1	0x3e605af8	0.21909702
2	0xbe9d23f6	-0.306915
3	0xbdeec232	-0.116581336
4	0x3e1c21dd	0.15247293
5	0x3e22cc2d	0.158982
6	0xbd1bbeac	-0.038023636
7	0xbef89f2f	-0.48558947
8	0xbe8b947e	-0.27261728
9	0xbe97c625	-0.2964336
10	0x3ed73dca	0.4203933
11	0xbf11005a	-0.5664116
12	0x3e78fe0b	0.2431566
13	0x3ed0b4bb	0.40762886
14	0xbef1da90	-0.47237062
15	0x3e8c8f38	0.27453017

2.weight f4 [16, 16]
0	0xbde98095	-0.11401478
1	0x3e1333d5	0.14375241
2	0xbc9963d9	-0.018724369
3	0xbd8717fc	-0.065963715
4	0xbc4856de	-0.012227742
5	0xbd1fa8dd	-0.0389794
6	0xbca072d4	-0.019586004
7	0x3dff8fb0	0.12478578
8	0x3da5d221	0.080967195
9	0xbdb6daf2	-0.08928479
10	0x3cdfca98	0.027318284
11	0x3d9520d4	0.07281652
12	0x3dc70668	0.09718019
13	0x3de73266	0.112889096
14	0x3e5bef8c	0.21478099
15	0x3d217afe	0.039423935
16	0x3e052178	0.13001049
17	0x3e961a7e	0.29317087
18	0x3e1d928a	0.15387931
19	0xbc8a2918	-0.016865298
20	0xbde153f4	-0.11002341
21	0x3e6a225e	0.22864673
22	0xbe8e6947	-0.27814695
23	0x3e4bf579	0.19917859
24	0xbe41a628	-0.1891104
25	0xbdb4b54e	-0.088236436
26	0x3e87a577	0.26493427
27	0x3dc79aac	0.09746298
28	0xbe844e46	-0.25840968
29	0x3e1667d8	0.14688051
30	0x3dc0837b	0.09400078
31	0x3eaf7112	0.34265953
32	0xbbe3f173	-0.006956273
33	0x3d8eb29c	0.06967661
34	0xbe011d54	-0.12608844
35	0x3eb0ada2	0.3450747
36	0xbec1c519	-0.37845686
37	0x3e96baee	0.2943949
38	0xbda9f22c	-0.08298144
39	0xbe26aebf	-0.16277598
40	0x3e41fd39	0.18944253
41	0xbd025155	-0.031815846
42	0x3ec634e5	0.3871223
43	0x3e025015	0.12725861
44	0xbea17400	-0.31533813
45	0x3eade4bb	0.3396357
46	0x3ea56a6b	0.32307753
47	0x3ed1dfea	0.40991145
48	0xbded60a0	-0.115906954
49	0xbe06052c	-0.1308791
50	0x3d8ba827	0.06819182
51	0xbe69e809	-0.2284242
52	0xbd58dda4	-0.052945748
53	0xbdf19a5c	-0.1179702
54	0x3deceb71	0.115683444
55	0x3dc355a8	0.09537822
56	0x3e565dbe	0.20934197
57	0x3e220dc3	0.15825562
58	0xbe86a641	-0.26298717
59	0x3cf68a1b	0.03009515
60	0xbe70a4f7	-0.23500429
61	0xbcddb0f6	-0.02706192
62	0xbd454a0a	-0.048166312
63	0x3c1959b8	0.0093597695
64	0xbe743496	-0.23848185
65	0x3ec231f8	0.37928748
66	0x3dd99796	0.10624616
67	0xbe12be25	-0.14330347
68	0xbe5d4c99	-0.21611251
69	0x3e1eeebc	0.15520757
70	0xbedd9809	-0.43280056
71	0x3e234642	0.1594477
72	0x3cce5163	0.025185293
73	0x3e32d19a	0.17462769
74	0x3e44de87	0.19225512
75	0xbd64fce4	-0.055905238
76	0xbdc825d3	-0.097728394
77	0x3e8d8f21	0.2764826
78	0xbd8c3bfd	-0.06847379
79	0x3eba961c	0.3644265
80	0xbdf448c7	-0.11927944
81	0x3e9e9346	0.30971736
82	0xbd86c20b	-0.065799795
83	0x3dce5794	0.10075298
84	0xbdccfc1d	-0.10009024
85	0x3ea93acc	0.3305267
86	0xbdef3d64	-0.11681631
87	0xbdd71c06	-0.10503392
88	0x3e499f30	0.19689631
89	0xbe32c6c8	-0.17458642
90	0x3e61e3d4	0.22059566
91	0xbe396f61	-0.18108894
92	0xbe9fb896	-0.31195515
93	0x3e4c8db2	0.19975927
94	0xbdb4830c	-0.08814058
95	0x3da7614c	0.08172855
96	0xbd8daf94	-0.069182545
97	0xbe05fccd	-0.13084717
98	0x3e7d1044	0.24713236
99	0xbe35e8c4	-0.17764574
100	0x3d3797a8	0.044822365
101	0xbe0de21e	-0.13855788
102	0xbd8aefd4	-0.06784025
103	0x3d87f7f0	0.06639087
104	0x3e17f3c2	0.1483908
105	0x3da1f6c8	0.07908398
106	0xbe3840c2	-0.17993453
107	0xbd3d7058	-0.046249717
108	0xbe8724b1	-0.2639518
109	0xbe426b3b	-0.18986218
110	0x3e51dfd7	0.20495544
111	0xbd526bc3	-0.0513723
112	0x3cfb4d33	0.03067646
113	0x3ed9495b	0.42438778
114	0x3dae0710	0.08497441
115	0x3e7fad7b	0.24968521
116	0xbd5348dd	-0.05158316
117	0x3d335094	0.043778017
118	0xbe80a2bf	-0.25124165
119	0x3d7d45e9	0.06183425
120	0xbe60fedc	-0.21972221
121	0xbe782d33	-0.24235992
122	0x3e5c8406	0.21534738
123	0xbdfaffc6	-0.12255816
124	0xbe7991d3	-0.24372034
125	0xbc75630a	-0.014977226
126	0xbdc0082f	-0.09376561
127	0x3daa0bf9	0.08303065
128	0xbe63085a	-0.22171155
129	0xbca5ef9a	-0.020255852
130	0xbdd931ae	-0.10605179
131	0xbcfb1d2e	-0.030653562
132	0xbd29f362	-0.041491874
133	0xbe0a161e	-0.13485
134	0x3db0ca81	0.086323746
135	0x3e2f54e6	0.1712223
136	0x3e533a0c	0.20627612
137	0x3e2dcb2d	0.16972037
138	0xbe675373	-0.22590427
139	0xbe0a6cb3	-0.13518028
140	0xbe1195ab	-0.1421725
141	0xbe220611	-0.15822627
142	0x3e1111c2	0.1416693
143	0xbe7d5755	-0.24740346
144	0xbd7ab0c5	-0.061203737
145	0x3e9a846e	0.3017916
146	0x3c483f80	0.012222171
147	0xbd393208	-0.04521373
148	0xbea0cbf0	-0.31405592
149	0x3ebfb75c	0.3744458
150	0xbdeecd9f	-0.11660313
151	0x3e16d097	0.14728008
152	0xbe3c949c	-0.18416065
153	0xbe0ce520	-0.13759279
154	0x3ea848a4	0.3286792
155	0xbd2a06db	-0.041510444
156	0xbd4ba5a9	-0.049718533
157	0x3e57f284	0.21088606
158	0xbdaf16f7	-0.08549302
159	0x3ed43a98	0.41450953
160	0xbe1de3c4	-0.15418917
161	0x3c6c0d00	0.014407396
162	0xbdacbc28	-0.084343255
163	0x3e568b0c	0.2095148
164	0xbe2ed948	-0.17075074
165	0x3decc670	0.115612864
166	0xbe25ffe2	-0.16210893
167	0x3deb9588	0.1150313
168	0x3d4e06c8	0.050299436
169	0xbe235b32	-0.15952757
170	0x3c9fba40	0.01949799
171	0x3d549910	0.051903784
172	0xbe647090	-0.22308564
173	0x3cd40130	0.025879472
174	0x3d92d468	0.071694195
175	0xbdc58b78	-0.09645742
176	0x3dc24548	0.094858706
177	0xbe93deaf	-0.28880832
178	0x3e59973f	0.21249102
179	0x3ddf004c	0.108887285
180	0x3ed73d64	0.42039025
181	0x3cc27a76	0.023740035
182	0x3ebfb08a	0.37439376
183	0x3dc6e5d9	0.09711809
184	0xbcb0f7d0	-0.021602541
185	0x3c585ce0	0.013205737
186	0x3dddbc3a	0.10826917
187	0xbdfcf624	-0.12351635
188	0x3e269652	0.1626828
189	0x3c325009	0.01088334
190	0x3dc938c2	0.09825279
191	0xbe1f266e	-0.15542004
192	0xbd95b57e	-0.073100075
193	0x3e407a42	0.18796638
194	0x3d361e60	0.04446256
195	0xbd9a4b4b	-0.07533892
196	0xbee311c1	-0.44349483
197	0x3ee14006	0.43994159
198	0xbe24520c	-0.16046923
199	0xbdc785ee	-0.09742342
200	0x3d921a78	0.07133955
201	0x3cfe3911	0.03103307
202	0x3e78ac9e	0.24284598
203	0x3e53b68d	0.20675106
204	0xbe98a53b	-0.2981356
205	0x3e9c6c52	0.30551392
206	0xbdb3a87d	-0.08772371
207	0x3ec90e3a	0.39268667
208	0xbe907f27	-0.2822201
209	0xbe9c6b73	-0.30550727
210	0x3dcd6710	0.10029423
211	0x3ebfabb2	0.3743568
212	0x3ef9e8fa	0.4881056
213	0xbe1ff4c8	-0.1562072
214	0x3d98bc33	0.07457771
215	0xbe308d92	-0.17241505
216	0xbe38d790	-0.1805098
217	0x3e86e155	0.2634379
218	0xbdc958cb	-0.09831389
219	0x3dc07c80	0.093987465
220	0x3ee3f0a6	0.44519538
221	0x3d7c1293	0.06154115
222	0xbcf9fdc7	-0.030516518
223	0xbe8eb983	-0.2787591
224	0xbdd759d8	-0.10515183
225	0x3e7fb1bc	0.24970144
226	0x3e57e368	0.21082842
227	0xbe02a665	-0.12758787
228	0xbe33ea2e	-0.17569801
229	0xbe6bbbd6	-0.23020872
230	0x3c019280	0.0079084635
231	0xbdc71ffc	-0.097228974
232	0xbe18a51a	-0.14906731
233	0xbe461ce4	-0.19346958
234	0xbd842fbc	-0.06454417
235	0xbe31ffa2	-0.17382672
236	0x3e121b66	0.14268264
237	0xbd83a030	-0.06427038
238	0x3e5ae628	0.2137686
239	0xbca2b570	-0.019861907
240	0xbe06ec80	-0.13176155
241	0xbd2cae08	-0.042158157
242	0x3e384847	0.17996322
243	0xbdb6745a	-0.08908911
244	0xbe0c38a5	-0.13693483
245	0x3e0aacdd	0.13542505
246	0x3e3f083a	0.18655482
247	0x3d3a074b	0.04541711
248	0xbd248fe0	-0.040176272
249	0x3e35350d	0.17696019
250	0xbb1e46e6	-0.0024151145
251	0x3c379b5a	0.011206472
252	0x3e1fa54f	0.15590404
253	0xbe36046e	-0.17775127
254	0xbe496cb4	-0.19670373
255	0x3e1a3a56	0.15061316

2.bias f4 [16]
0	0xbebd9222	-0.37025553
1	0x3cf3e11f	0.029770432
2	0x3c5f5e0f	0.013633265
3	0x3c23d743	0.010000053
4	0x3d219e40	0.03945756
5	0x3bcc59b2	0.0062362785
6	0xbceef84e	-0.029171135
7	0x3df30aa1	0.11867262
8	0xba1096e4	-0.00055156485
9	0xbc8a4d4a	-0.016882557
10	0xbe72a608	-0.23696148
11	0x3e3895ac	0.18025845
12	0x3d422310	0.04739672
13	0x3e9aebe0	0.30258083
14	0xbe758e5f	-0.23980092
15	0xbe8151bb	-0.25257668

4.weight f4 [2, 16]
0	0x3e0fa470	0.14027572
1	0xbad69deb	-0.0016373968
2	0xbd68a72e	-0.05680006
3	0xbe3862da	-0.18006459
4	0x3c007eed	0.007842761
5	0xbc5f33d5	-0.013623198
6	0x3e02307b	0.12713806
7	0xbe019ec1	-0.12658216
8	0x3c721f21	0.0147779295
9	0xbe7a3266	-0.24433288
10	0xbd824154	-0.063601166
11	0x3eb0578d	0.34441796
12	0xbe8a0ad9	-0.269614
13	0x3ed02d2b	0.4065946
14	0x3e49cdaf	0.19707368
15	0xbb4be19c	-0.0031109815
16	0x3a88a805	0.001042605
17	0x3ea5516e	0.32288688
18	0x3edd9495	0.43277422
19	0x3babb8ce	0.0052405363
20	0x3e9f3213	0.3109289
21	0x3ebb8828	0.36627316
22	0x3e3e4e97	0.18584667
23	0x3e0bfc66	0.13670501
24	0x3d02527c	0.031816944
25	0x3e8bb644	0.27287495
26	0x3e150aae	0.14554855
27	0xbe825659	-0.25456503
28	0x3ebdcd9c	0.3707093
29	0xbef3908d	-0.4757122
30	0x3e3691fb	0.17829125
31	0x3b1b92e1	0.002373867

4.bias f4 [2]
0	0x3e175460	0.1477828
1	0xbea22467	-0.31668398

0.weight f4 [16, 4]
0	0x3e1c3269	0.15253605
1	0xbf0443b3	-0.516658
2	0xbdfa85e6	-0.1223257
3	0xbd575d63	-0.052579295
4	0x3dad689a	0.08467217
5	0xbef38d1b	-0.47568592
6	0xbdd9c932	-0.10634078
7	0xbe85a0e1	-0.26099303
8	0x3e704e38	0.23467338
9	0x3e418bde	0.18901011
10	0xbe486fb6	-0.19573864
11	0xbd7553a7	-0.05989423
12	0x3c460b7a	0.012087697
13	0x3e66462d	0.22487707
14	0xbe23b6e7	-0.1598774
15	0x3e8f6827	0.2800915
16	0x3df60f6f	0.120146625
17	0xbec16cb2	-0.3777824
18	0xbf3aed0c	-0.73017955
19	0xbf66caac	-0.90153
20	0xbcb8660a	-0.022509594
21	0xbecc81bb	-0.39942726
22	0xbe8165a4	-0.25272858
23	0xbca6b1a4	-0.020348378
24	0x3d6e01b4	0.058107093
25	0xbeb5be5f	-0.35496804
26	0xbe96a727	-0.29424402
27	0xbdccb68a	-0.09995754
28	0xbee99da7	-0.45628092
29	0x3e4fd9a9	0.20297875
30	0x3fa1268c	1.2589889
31	0x3f408030	0.751956
32	0xbde6a240	-0.112614155
33	0xbea1ef79	-0.31628016
34	0xbed6bd92	-0.41941506
35	0xbe446dbf	-0.1918249
36	0x3d178749	0.036994252
37	0xbefa3c67	-0.48874208
38	0xbefa69c8	-0.4890883
39	0xbf4d8a27	-0.8028893
40	0xbe153fac	-0.1457507
41	0xbebbed0d	-0.36704293
42	0xbf029dde	-0.51022136
43	0xbeb00297	-0.34376976
44	0x3dff9440	0.12479448
45	0xbe57f0b4	-0.21087915
46	0xbe4318f8	-0.19052494
47	0xbd0d4a90	-0.034494936
48	0x3dba1c27	0.09087401
49	0xbe75a5ec	-0.23989075
50	0xbe027efd	-0.12743755
51	0xbedb8ed1	-0.42882398
52	0xbdba26dd	-0.09089444
53	0xbf0c3496	-0.5476774
54	0x3d756388	0.059909374
55	0xbecf6286	-0.40504855
56	0xbdb60771	-0.08888138
57	0x3dbac771	0.09120072
58	0x3f9beddd	1.2181965
59	0x3f0bcdab	0.546107
60	0xbca5fdad	-0.020262564
61	0xbe38fbd4	-0.18064815
62	0x3e713546	0.23555478
63	0x3cb7c3c3	0.022432214

0.bias f4 [16]
0	0x3f82765f	1.0192374
1	0x3f93456a	1.1505558
2	0x3f8630e0	1.0483665
3	0x3f6d8fb8	0.9279742
4	0xbe68ff11	-0.2275355
5	0x3f9777fa	1.1833489
6	0x3f1982a2	0.59964955
7	0xbdbaa1d0	-0.091128945
8	0x3f8d1a94	1.1023736
9	0xbe364a39	-0.17801751
10	0xbe0214ae	-0.12703201
11	0xbed2bfe6	-0.41162032
12	0x3f86551e	1.0494726
13	0x3f8bff2e	1.093725
14	0xbcf609bd	-0.03003394
15	0x3f566c0a	0.83758605

2.weight f4 [16, 16]
0	0x3ef5848e	0.47952694
1	0x3f434648	0.76279116
2	0x3f536802	0.8258058
3	0x3f1e4dda	0.6183754
4	0xbe959f21	-0.29222968
5	0x3f4b42be	0.79398715
6	0x3f20479c	0.6260927
7	0xbf4ad66b	-0.79233426
8	0x3f34f1d8	0.70681524
9	0xbf35ccf3	-0.7101585
10	0xbebf8e26	-0.37413138
11	0x3dde7178	0.10861486
12	0x3f7abc64	0.9794371
13	0x3f64e205	0.8940738
14	0xbef61fdf	-0.4807119
15	0x3ed00582	0.40629202
16	0x3e663096	0.22479472
17	0x3c5c40c0	0.013443172
18	0x3e223536	0.15840611
19	0xbdcd73c4	-0.10031846
20	0xbe46d8fa	-0.19418707
21	0xbe272b6a	-0.16325155
22	0x3d124cb8	0.035717696
23	0x3d7a6730	0.061133564
24	0x3d5c1700	0.053732872
25	0xbe42c3d4	-0.19020015
26	0x3e00ae04	0.12566382
27	0x3db184e4	0.08667925
28	0x3bbd5900	0.005778432
29	0xbdfa37d8	-0.122176826
30	0xbdc10768	-0.09425241
31	0x3c3abb40	0.011397183
32	0xbdb5add7	-0.08871048
33	0x3e0b22ba	0.13587466
34	0xbe97b071	-0.29626802
35	0x3dca7728	0.098860085
36	0x3e9490fa	0.29016858
37	0xbc64d2b5	-0.013966252
38	0x3e30088d	0.17190762
39	0x3f2da194	0.67824674
40	0x3e27f509	0.16402067
41	0x3f0c742f	0.5486478
42	0x3f0020a4	0.50049806
43	0x3d30e090	0.04318291
44	0xbead26e9	-0.3381875
45	0xbe87656c	-0.26444566
46	0x3e81b61e	0.25334257
47	0x3ec212cd	0.3790497
48	0x3ef49e29	0.47776917
49	0x3f3a32e9	0.7273393
50	0x3f472a51	0.77798945
51	0x3e917c35	0.28415075
52	0xbf15601b	-0.5834977
53	0x3f6a34aa	0.9148661
54	0x3f302a51	0.6881457
55	0xbf23bc4d	-0.639592
56	0x3f71b015	0.94409305
57	0xbf4564b3	-0.7710678
58	0xbdf41120	-0.11917329
59	0xbe16fc64	-0.14744717
60	0x3f3deb7f	0.74187464
61	0x3f7d8e20	0.9904499
62	0xbf1b58bf	-0.6068229
63	0x3f27769e	0.6541537
64	0xbe4f8afd	-0.20267864
65	0x3e06d9a4	0.13168961
66	0xbe129502	-0.14314654
67	0xbe11a160	-0.14221716
68	0xbe43c86e	-0.19119427
69	0xbc577d1e	-0.013152389
70	0xbda9f7ec	-0.082992405
71	0xbd863e08	-0.065548
72	0x3e0ac6ad	0.13552351
73	0xbbb21940	-0.005435139
74	0xbe185254	-0.14875156
75	0xbc6d3960	-0.014479011
76	0xbde50636	-0.11182825
77	0xbdc3c374	-0.09558764
78	0xbe211b51	-0.15733077
79	0x3e65a338	0.22425544
80	0x3e21dd59	0.15807094
81	0xbe98778a	-0.297787
82	0x3d1f7521	0.038930062
83	0x3da97f1d	0.08276198
84	0xbe2a04e2	-0.16603425
85	0xbe3b73c6	-0.18305883
86	0x3cb7e9fa	0.022450436
87	0x3c4d6dc0	0.0125383735
88	0x3cc57738	0.0241047
89	0x3e393c16	0.18089327
90	0x3e46df37	0.19421087
91	0xbe6bcc1a	-0.23027077
92	0xbe6b0bdd	-0.22953744
93	0x3dffd7a9	0.12492306
94	0xbd7a7bcc	-0.06115322
95	0xbe57923a	-0.21051875
96	0x3dd90b8c	0.105979055
97	0xbe22dc30	-0.15904307
98	0xbde8c5ac	-0.11365828
99	0x3ce22690	0.027606279
100	0x3d326530	0.04355353
101	0xbe73f4b2	-0.23823813
102	0x3d1f0368	0.038821608
103	0x3e6df5f6	0.23238358
104	0x3dcd76cc	0.10032424
105	0xbe168062	-0.14697412
106	0xbe287712	-0.16451672
107	0x3d9dd680	0.07706928
108	0xbc84ea90	-0.01622513
109	0xbe00659c	-0.12538761
110	0xbd65b010	-0.05607611
111	0xbdd04498	-0.10169333
112	0xbe65a02d	-0.22424383
113	0x3d9655ed	0.07340608
114	0xbd706587	-0.058690574
115	0x3ec71f5d	0.38891116
116	0x3f3197dd	0.6937235
117	0x3db8e420	0.090278864
118	0x3b625001	0.003453255
119	0x3f6c3d8b	0.9228141
120	0x3d7a9418	0.06117639
121	0x3f20e81f	0.6285419
122	0x3efb0d5d	0.49033633
123	0x3e184cdc	0.1487307
124	0xbeb4294b	-0.35187754
125	0xbd16d3a6	-0.036822937
126	0x3f44f9e9	0.7694383
127	0x3d9e9dd6	0.077449486
128	0x3dd1b7c2	0.10240127
129	0x3d68eef5	0.056868512
130	0x3cce41bc	0.025177829
131	0xbd9be82a	-0.07612641
132	0x3d7c7b98	0.061641306
133	0x3db3fde8	0.08788663
134	0x3d2daf04	0.042403236
135	0xbd6e6ca0	-0.05820906
136	0xbe1ce508	-0.15321743
137	0xbdbcfa58	-0.09227437
138	0xbd1bbc85	-0.038021583
139	0xbb009780	-0.001962155
140	0xbe066dc7	-0.13127814
141	0xbda83b33	-0.08214416
142	0xbdb871ed	-0.090061046
143	0xbda69cf6	-0.08135407
144	0xbe594810	-0.21218896
145	0x3e181f3c	0.14855665
146	0x3dfc0ede	0.12307523
147	0xbe31610c	-0.17322177
148	0xbda23459	-0.07920141
149	0x3db67f92	0.08911051
150	0xbe034cb0	-0.12822223
151	0xbe44ce2e	-0.19219276
152	0xbd9ea49b	-0.0774624
153	0x3d9786bf	0.07398748
154	0x3d4045d5	0.046941597
155	0x3dde7994	0.10863033
156	0xbdb982e9	-0.09058172
157	0xbe7463f0	-0.23866248
158	0xbdaa6f8f	-0.08322059
159	0xbe8beb46	-0.27327937
160	0x3f02c5b5	0.51082927
161	0x3f3eb7de	0.7449931
162	0x3f86847b	1.050918
163	0x3f22cf32	0.63597405
164	0xbf2a41cd	-0.66506654
165	0x3f0640fe	0.5244292
166	0x3f2ef7e1	0.68346983
167	0xbf1c0674	-0.60947347
168	0x3f690091	0.9101649
169	0xbf309c14	-0.68988156
170	0xbea59a5f	-0.32344338
171	0x3e7f2e44	0.24919993
172	0x3f7805b4	0.968837
173	0x3f77bb95	0.967706
174	0xbeac7bab	-0.336881
175	0x3ece9b0a	0.4035266
176	0x3df46362	0.11933018
177	0xbde64699	-0.11243934
178	0xbd7c974d	-0.06166773
179	0xbe495224	-0.1966024
180	0xbdac293a	-0.08406301
181	0xbe82e963	-0.25568685
182	0xbc284240	-0.0102697015
183	0xbe0f88d4	-0.1401704
184	0xbe8f10be	-0.2794246
185	0xbd3b5c31	-0.045742217
186	0x3e2d5376	0.16926369
187	0x3d0f43f8	0.03497693
188	0x3e4097b8	0.18807876
189	0x3e1f7153	0.15570574
190	0x3e3f715d	0.18695588
191	0xbe409d16	-0.18809924
192	0xbdf742a1	-0.12073255
193	0x3e369c7b	0.1783313
194	0xbca0b957	-0.019619627
195	0xbe75aa98	-0.23990858
196	0x3d7bc7c8	0.061469823
197	0xbe871d40	-0.26389503
198	0xbcd0e181	-0.025498154
199	0xbd1cf542	-0.038319834
200	0x3e22cc29	0.15898193
201	0xbe4a7621	-0.19771625
202	0x3bd60baa	0.006532152
203	0xbd2377c0	-0.039909124
204	0xbe909e2a	-0.2824567
205	0x3e5abcb0	0.21361041
206	0x3ddda2e0	0.108220816
207	0xbcca4406	-0.02469064
208	0x3f3b0f6d	0.7307041
209	0x3f4883c0	0.78326035
210	0x3f69085e	0.9102839
211	0x3f3382af	0.7012128
212	0xbe70e019	-0.23522986
213	0x3f4f90d4	0.81080365
214	0x3f324717	0.69639724
215	0xbee539e1	-0.4477072
216	0x3f33df62	0.7026273
217	0xbec239ef	-0.37934825
218	0xbed0729a	-0.40712434
219	0xbe1cb2f6	-0.15302643
220	0x3f84d8d1	1.0378667
221	0x3f160c98	0.58612967
222	0xbef7602f	-0.4831557
223	0x3e930660	0.287158
224	0x3e9e5af6	0.30928773
225	0x3f3924b0	0.72321606
226	0x3f2baac3	0.67057437
227	0x3ec329f0	0.38117933
228	0xbf3ec5ab	-0.7452037
229	0x3f1c5a77	0.6107554
230	0x3f1985fc	0.5997007
231	0xbf4e84e7	-0.8067154
232	0x3f5119b1	0.81679827
233	0xbef8361a	-0.48478776
234	0xbdf506a9	-0.11964161
235	0x3debf4a8	0.11521274
236	0x3f57c9d3	0.84292334
237	0x3f504bb2	0.813655
238	0xbf291c95	-0.6605924
239	0x3e8b744e	0.2723717
240	0xbe8b888f	-0.27252623
241	0x3e082658	0.13295877
242	0xbe9dbd05	-0.30808273
243	0xbf0ba241	-0.54544455
244	0x3ec0baab	0.37642416
245	0x3e0df99d	0.13864751
246	0xbe4fe860	-0.20303488
247	0xbe97909e	-0.29602522
248	0x3e2850ba	0.16437045
249	0x3f30c5ff	0.6905212
250	0x3ee58b74	0.44832957
251	0xbe52feb8	-0.2060498
252	0x3e896590	0.268353
253	0x3e8a67a3	0.27032194
254	0x3ca2721d	0.019829804
255	0xbeb8e438	-0.36111617

2.bias f4 [16]
0	0x3f47f8a9	0.781138
1	0xbe473736	-0.19454655
2	0x3debb190	0.11508477
3	0x3f3ece00	0.7453308
4	0x3d25b467	0.04045525
5	0x3e00b565	0.12569197
6	0x3c31f7c0	0.010862291
7	0xbdcc7b79	-0.09984488
8	0xbc85b456	-0.016321342
9	0x3d01a43a	0.03165076
10	0x3f6b2657	0.91855377
11	0xbcb5a2ae	-0.022172298
12	0xbe0e6e1a	-0.13909188
13	0x3f2a3897	0.664926
14	0x3eb61f66	0.3557083
15	0xba90c1d8	-0.0011044098

4.weight f4 [1, 16]
0	0x3f88fe80	1.0702667
1	0x3e0fbc32	0.14036635
2	0xbf36fa81	-0.7147599
3	0x3f8f68c0	1.1203842
4	0xbe458377	-0.19288431
5	0xbe242923	-0.16031317
6	0x3e3998f8	0.18124759
7	0xbf4ccaec	-0.79997134
8	0xbe4c0045	-0.19921978
9	0xbe245926	-0.16049632
10	0x3f729bca	0.94768965
11	0xbde367a7	-0.111037545
12	0xbcc7c192	-0.024384294
13	0x3f76de67	0.9643311
14	0x3f4c26cf	0.7974672
15	0xbf06663e	-0.5249976
